…
INFO:src.datasets:Prescaling <ufunc 'log'> applied to targets
INFO:src.datasets:dataset provided with scaler targets
INFO:src.datasets:Normalization applied to targets
INFO:__main__:Comprehending the configuration settings
WARNING:__main__:Creating new model. Note this will replace any previous model
INFO:src.models:torch.cuda.is_available() = True
INFO:__main__:Comprehending the configuration settings
WARNING:__main__:Creating new model. Note this will replace any previous model
INFO:src.models:torch.cuda.is_available() = True
INFO:src.models:Initializing model FCNN(
  (seq_model): Sequential(
    (0): Conv2d(10, 128, kernel_size=(5, 5), stride=(1, 1), padding=(2, 2))
    (1): ReLU()
    (2): BatchNorm2d(128, eps=1e-05, momentum=0.1, affine=True, track_running_stats=True)
    (3): Conv2d(128, 64, kernel_size=(5, 5), stride=(1, 1), padding=(2, 2))
    (4): ReLU()
    (5): BatchNorm2d(64, eps=1e-05, momentum=0.1, affine=True, track_running_stats=True)
    (6): Conv2d(64, 6, kernel_size=(3, 3), stride=(1, 1), padding=(1, 1))
    (7): ReLU()
    (8): BatchNorm2d(6, eps=1e-05, momentum=0.1, affine=True, track_running_stats=True)
  )
)
INFO:src.datasets:Features shape: (18, 10, 769, 155), Targets shape: (18, 6, 769, 155)
INFO:src.datasets:Features shape: (18, 10, 769, 155), Targets shape: (18, 6, 769, 155)
INFO:src.datasets:dataset provided with scaler features
INFO:src.datasets:dataset provided with scaler features
INFO:src.datasets:Normalization applied to features
…
INFO:src.datasets:Prescaling <ufunc 'log'> applied to targets
INFO:src.datasets:dataset provided with scaler targets
INFO:src.datasets:Normalization applied to targets
INFO:__main__:Comprehending the configuration settings
WARNING:__main__:Creating new model. Note this will replace any previous model
INFO:src.models:torch.cuda.is_available() = True
INFO:__main__:Comprehending the configuration settings
WARNING:__main__:Creating new model. Note this will replace any previous model
INFO:src.models:torch.cuda.is_available() = True
INFO:src.models:Initializing model FCNN(
  (seq_model): Sequential(
    (0): Conv2d(10, 128, kernel_size=(5, 5), stride=(1, 1), padding=(2, 2))
    (1): ReLU()
    (2): BatchNorm2d(128, eps=1e-05, momentum=0.1, affine=True, track_running_stats=True)
    (3): Conv2d(128, 64, kernel_size=(5, 5), stride=(1, 1), padding=(2, 2))
    (4): ReLU()
    (5): BatchNorm2d(64, eps=1e-05, momentum=0.1, affine=True, track_running_stats=True)
    (6): Conv2d(64, 6, kernel_size=(3, 3), stride=(1, 1), padding=(1, 1))
    (7): ReLU()
    (8): BatchNorm2d(6, eps=1e-05, momentum=0.1, affine=True, track_running_stats=True)
  )
)
INFO:src.models:Initializing model FCNN(
  (seq_model): Sequential(
    (0): Conv2d(10, 128, kernel_size=(5, 5), stride=(1, 1), padding=(2, 2))
    (1): ReLU()
    (2): BatchNorm2d(128, eps=1e-05, momentum=0.1, affine=True, track_running_stats=True)
    (3): Conv2d(128, 64, kernel_size=(5, 5), stride=(1, 1), padding=(2, 2))
    (4): ReLU()
    (5): BatchNorm2d(64, eps=1e-05, momentum=0.1, affine=True, track_running_stats=True)
    (6): Conv2d(64, 6, kernel_size=(3, 3), stride=(1, 1), padding=(1, 1))
    (7): ReLU()
    (8): BatchNorm2d(6, eps=1e-05, momentum=0.1, affine=True, track_running_stats=True)
  )
)
INFO:src.models:Initializing model FCNN(
  (seq_model): Sequential(
    (0): Conv2d(10, 128, kernel_size=(5, 5), stride=(1, 1), padding=(2, 2))
    (1): ReLU()
    (2): BatchNorm2d(128, eps=1e-05, momentum=0.1, affine=True, track_running_stats=True)
    (3): Conv2d(128, 64, kernel_size=(5, 5), stride=(1, 1), padding=(2, 2))
    (4): ReLU()
    (5): BatchNorm2d(64, eps=1e-05, momentum=0.1, affine=True, track_running_stats=True)
    (6): Conv2d(64, 6, kernel_size=(3, 3), stride=(1, 1), padding=(1, 1))
    (7): ReLU()
    (8): BatchNorm2d(6, eps=1e-05, momentum=0.1, affine=True, track_running_stats=True)
  )
)
INFO:src.models:Initializing model FCNN(
  (seq_model): Sequential(
    (0): Conv2d(10, 128, kernel_size=(5, 5), stride=(1, 1), padding=(2, 2))
    (1): ReLU()
    (2): BatchNorm2d(128, eps=1e-05, momentum=0.1, affine=True, track_running_stats=True)
    (3): Conv2d(128, 64, kernel_size=(5, 5), stride=(1, 1), padding=(2, 2))
    (4): ReLU()
    (5): BatchNorm2d(64, eps=1e-05, momentum=0.1, affine=True, track_running_stats=True)
    (6): Conv2d(64, 6, kernel_size=(3, 3), stride=(1, 1), padding=(1, 1))
    (7): ReLU()
    (8): BatchNorm2d(6, eps=1e-05, momentum=0.1, affine=True, track_running_stats=True)
  )
)
INFO:src.models:Initializing model FCNN(
  (seq_model): Sequential(
    (0): Conv2d(10, 128, kernel_size=(5, 5), stride=(1, 1), padding=(2, 2))
    (1): ReLU()
    (2): BatchNorm2d(128, eps=1e-05, momentum=0.1, affine=True, track_running_stats=True)
    (3): Conv2d(128, 64, kernel_size=(5, 5), stride=(1, 1), padding=(2, 2))
    (4): ReLU()
    (5): BatchNorm2d(64, eps=1e-05, momentum=0.1, affine=True, track_running_stats=True)
    (6): Conv2d(64, 6, kernel_size=(3, 3), stride=(1, 1), padding=(1, 1))
    (7): ReLU()
    (8): BatchNorm2d(6, eps=1e-05, momentum=0.1, affine=True, track_running_stats=True)
  )
)
INFO:src.models:Optimization criterion MSELoss()
INFO:src.models:Optimization criterion MSELoss()
INFO:src.models:Optimization criterion MSELoss()
INFO:src.models:Optimization criterion MSELoss()
INFO:src.models:Tracking metrics [L1Loss()]
INFO:src.models:Tracking metrics [L1Loss()]
INFO:src.models:Tracking metrics [L1Loss()]
INFO:src.models:Tracking metrics [L1Loss()]
INFO:src.models:Optimization criterion MSELoss()
INFO:src.models:Optimization criterion MSELoss()
INFO:src.models:Tracking metrics [L1Loss()]
INFO:src.models:Tracking metrics [L1Loss()]
INFO:src.models:Optimization criterion MSELoss()
INFO:src.models:Optimization criterion MSELoss()
INFO:src.models:Tracking metrics [L1Loss()]
INFO:src.models:Tracking metrics [L1Loss()]
INFO:__main__:Creating object: <src.models.PyNet object at 0x153d183c05b0> which contains DistributedDataParallel(
  (module): FCNN(
    (seq_model): Sequential(
      (0): Conv2d(10, 128, kernel_size=(5, 5), stride=(1, 1), padding=(2, 2))
      (1): ReLU()
      (2): BatchNorm2d(128, eps=1e-05, momentum=0.1, affine=True, track_running_stats=True)
      (3): Conv2d(128, 64, kernel_size=(5, 5), stride=(1, 1), padding=(2, 2))
      (4): ReLU()
      (5): BatchNorm2d(64, eps=1e-05, momentum=0.1, affine=True, track_running_stats=True)
      (6): Conv2d(64, 6, kernel_size=(3, 3), stride=(1, 1), padding=(1, 1))
      (7): ReLU()
      (8): BatchNorm2d(6, eps=1e-05, momentum=0.1, affine=True, track_running_stats=True)
    )
  )
) as the model
INFO:__main__:Creating object: <src.models.PyNet object at 0x14f019e14730> which contains DistributedDataParallel(
  (module): FCNN(
    (seq_model): Sequential(
      (0): Conv2d(10, 128, kernel_size=(5, 5), stride=(1, 1), padding=(2, 2))
      (1): ReLU()
      (2): BatchNorm2d(128, eps=1e-05, momentum=0.1, affine=True, track_running_stats=True)
      (3): Conv2d(128, 64, kernel_size=(5, 5), stride=(1, 1), padding=(2, 2))
      (4): ReLU()
      (5): BatchNorm2d(64, eps=1e-05, momentum=0.1, affine=True, track_running_stats=True)
      (6): Conv2d(64, 6, kernel_size=(3, 3), stride=(1, 1), padding=(1, 1))
      (7): ReLU()
      (8): BatchNorm2d(6, eps=1e-05, momentum=0.1, affine=True, track_running_stats=True)
    )
  )
) as the model
INFO:__main__:self.device = None on self.local_rank = 1
INFO:__main__:self.device = None on self.local_rank = 0
INFO:__main__:Creating object: <src.models.PyNet object at 0x1494f27f87c0> which contains DistributedDataParallel(
  (module): FCNN(
    (seq_model): Sequential(
      (0): Conv2d(10, 128, kernel_size=(5, 5), stride=(1, 1), padding=(2, 2))
      (1): ReLU()
      (2): BatchNorm2d(128, eps=1e-05, momentum=0.1, affine=True, track_running_stats=True)
      (3): Conv2d(128, 64, kernel_size=(5, 5), stride=(1, 1), padding=(2, 2))
      (4): ReLU()
      (5): BatchNorm2d(64, eps=1e-05, momentum=0.1, affine=True, track_running_stats=True)
      (6): Conv2d(64, 6, kernel_size=(3, 3), stride=(1, 1), padding=(1, 1))
      (7): ReLU()
      (8): BatchNorm2d(6, eps=1e-05, momentum=0.1, affine=True, track_running_stats=True)
    )
  )
) as the model
INFO:__main__:Creating object: <src.models.PyNet object at 0x14cd7e8946a0> which contains DistributedDataParallel(
  (module): FCNN(
    (seq_model): Sequential(
      (0): Conv2d(10, 128, kernel_size=(5, 5), stride=(1, 1), padding=(2, 2))
      (1): ReLU()
      (2): BatchNorm2d(128, eps=1e-05, momentum=0.1, affine=True, track_running_stats=True)
      (3): Conv2d(128, 64, kernel_size=(5, 5), stride=(1, 1), padding=(2, 2))
      (4): ReLU()
      (5): BatchNorm2d(64, eps=1e-05, momentum=0.1, affine=True, track_running_stats=True)
      (6): Conv2d(64, 6, kernel_size=(3, 3), stride=(1, 1), padding=(1, 1))
      (7): ReLU()
      (8): BatchNorm2d(6, eps=1e-05, momentum=0.1, affine=True, track_running_stats=True)
    )
  )
) as the model
INFO:__main__:self.device = None on self.local_rank = 1
INFO:__main__:self.device = None on self.local_rank = 0
INFO:__main__:Creating object: <src.models.PyNet object at 0x151ea1d547f0> which contains DistributedDataParallel(
  (module): FCNN(
    (seq_model): Sequential(
      (0): Conv2d(10, 128, kernel_size=(5, 5), stride=(1, 1), padding=(2, 2))
      (1): ReLU()
      (2): BatchNorm2d(128, eps=1e-05, momentum=0.1, affine=True, track_running_stats=True)
      (3): Conv2d(128, 64, kernel_size=(5, 5), stride=(1, 1), padding=(2, 2))
      (4): ReLU()
      (5): BatchNorm2d(64, eps=1e-05, momentum=0.1, affine=True, track_running_stats=True)
      (6): Conv2d(64, 6, kernel_size=(3, 3), stride=(1, 1), padding=(1, 1))
      (7): ReLU()
      (8): BatchNorm2d(6, eps=1e-05, momentum=0.1, affine=True, track_running_stats=True)
    )
  )
) as the model
INFO:__main__:Creating object: <src.models.PyNet object at 0x14a353428700> which contains DistributedDataParallel(
  (module): FCNN(
    (seq_model): Sequential(
      (0): Conv2d(10, 128, kernel_size=(5, 5), stride=(1, 1), padding=(2, 2))
      (1): ReLU()
      (2): BatchNorm2d(128, eps=1e-05, momentum=0.1, affine=True, track_running_stats=True)
      (3): Conv2d(128, 64, kernel_size=(5, 5), stride=(1, 1), padding=(2, 2))
      (4): ReLU()
      (5): BatchNorm2d(64, eps=1e-05, momentum=0.1, affine=True, track_running_stats=True)
      (6): Conv2d(64, 6, kernel_size=(3, 3), stride=(1, 1), padding=(1, 1))
      (7): ReLU()
      (8): BatchNorm2d(6, eps=1e-05, momentum=0.1, affine=True, track_running_stats=True)
    )
  )
) as the model
INFO:__main__:self.device = None on self.local_rank = 1
INFO:__main__:self.device = None on self.local_rank = 0
INFO:__main__:Creating object: <src.models.PyNet object at 0x14d67a450430> which contains DistributedDataParallel(
  (module): FCNN(
    (seq_model): Sequential(
      (0): Conv2d(10, 128, kernel_size=(5, 5), stride=(1, 1), padding=(2, 2))
      (1): ReLU()
      (2): BatchNorm2d(128, eps=1e-05, momentum=0.1, affine=True, track_running_stats=True)
      (3): Conv2d(128, 64, kernel_size=(5, 5), stride=(1, 1), padding=(2, 2))
      (4): ReLU()
      (5): BatchNorm2d(64, eps=1e-05, momentum=0.1, affine=True, track_running_stats=True)
      (6): Conv2d(64, 6, kernel_size=(3, 3), stride=(1, 1), padding=(1, 1))
      (7): ReLU()
      (8): BatchNorm2d(6, eps=1e-05, momentum=0.1, affine=True, track_running_stats=True)
    )
  )
) as the model
INFO:__main__:Code version git hash: c8853fbbb87a6b5c03848d9579e6ecec5f3ddcc6
INFO:__main__:Creating object: <src.models.PyNet object at 0x15285c804a60> which contains DistributedDataParallel(
  (module): FCNN(
    (seq_model): Sequential(
      (0): Conv2d(10, 128, kernel_size=(5, 5), stride=(1, 1), padding=(2, 2))
      (1): ReLU()
      (2): BatchNorm2d(128, eps=1e-05, momentum=0.1, affine=True, track_running_stats=True)
      (3): Conv2d(128, 64, kernel_size=(5, 5), stride=(1, 1), padding=(2, 2))
      (4): ReLU()
      (5): BatchNorm2d(64, eps=1e-05, momentum=0.1, affine=True, track_running_stats=True)
      (6): Conv2d(64, 6, kernel_size=(3, 3), stride=(1, 1), padding=(1, 1))
      (7): ReLU()
      (8): BatchNorm2d(6, eps=1e-05, momentum=0.1, affine=True, track_running_stats=True)
    )
  )
) as the model
INFO:__main__:Code version git hash: c8853fbbb87a6b5c03848d9579e6ecec5f3ddcc6
INFO:__main__:Code version git hash: c8853fbbb87a6b5c03848d9579e6ecec5f3ddcc6
INFO:__main__:Code version git hash: c8853fbbb87a6b5c03848d9579e6ecec5f3ddcc6
INFO:__main__:self.device = None on self.local_rank = 1
INFO:__main__:Code version git hash: c8853fbbb87a6b5c03848d9579e6ecec5f3ddcc6
…
