…
Hello from rank 7 of 8 on r24g41 where there are 2 allocated GPUs per node.
Group initialized? True
host: r24g37, rank: 1, local_rank: 1,                 gpus_per_node: 2, num_workers: 8
Creating Trainer object with args.work_dir = '/lustre1/project/stg_00032/georgem/closure/models/dev/dev21/'
torch.cuda.is_available() = True
host: r24g37, rank: 0, local_rank: 0,                 gpus_per_node: 2, num_workers: 8
Creating Trainer object with args.work_dir = '/lustre1/project/stg_00032/georgem/closure/models/dev/dev21/'
torch.cuda.is_available() = True
Initializing model FCNN(
  (seq_model): Sequential(
    (0): Conv2d(10, 128, kernel_size=(5, 5), stride=(1, 1), padding=(2, 2))
    (1): ReLU()
    (2): BatchNorm2d(128, eps=1e-05, momentum=0.1, affine=True, track_running_stats=True)
    (3): Conv2d(128, 64, kernel_size=(5, 5), stride=(1, 1), padding=(2, 2))
    (4): ReLU()
    (5): BatchNorm2d(64, eps=1e-05, momentum=0.1, affine=True, track_running_stats=True)
    (6): Conv2d(64, 6, kernel_size=(3, 3), stride=(1, 1), padding=(1, 1))
    (7): ReLU()
    (8): BatchNorm2d(6, eps=1e-05, momentum=0.1, affine=True, track_running_stats=True)
  )
)
Initializing model FCNN(
  (seq_model): Sequential(
    (0): Conv2d(10, 128, kernel_size=(5, 5), stride=(1, 1), padding=(2, 2))
    (1): ReLU()
    (2): BatchNorm2d(128, eps=1e-05, momentum=0.1, affine=True, track_running_stats=True)
    (3): Conv2d(128, 64, kernel_size=(5, 5), stride=(1, 1), padding=(2, 2))
    (4): ReLU()
    (5): BatchNorm2d(64, eps=1e-05, momentum=0.1, affine=True, track_running_stats=True)
    (6): Conv2d(64, 6, kernel_size=(3, 3), stride=(1, 1), padding=(1, 1))
    (7): ReLU()
    (8): BatchNorm2d(6, eps=1e-05, momentum=0.1, affine=True, track_running_stats=True)
  )
)
host: r24g38, rank: 3, local_rank: 1,                 gpus_per_node: 2, num_workers: 8
Creating Trainer object with args.work_dir = '/lustre1/project/stg_00032/georgem/closure/models/dev/dev21/'
torch.cuda.is_available() = True
host: r24g38, rank: 2, local_rank: 0,                 gpus_per_node: 2, num_workers: 8
Creating Trainer object with args.work_dir = '/lustre1/project/stg_00032/georgem/closure/models/dev/dev21/'
torch.cuda.is_available() = True
Initializing model FCNN(
  (seq_model): Sequential(
    (0): Conv2d(10, 128, kernel_size=(5, 5), stride=(1, 1), padding=(2, 2))
    (1): ReLU()
    (2): BatchNorm2d(128, eps=1e-05, momentum=0.1, affine=True, track_running_stats=True)
    (3): Conv2d(128, 64, kernel_size=(5, 5), stride=(1, 1), padding=(2, 2))
    (4): ReLU()
    (5): BatchNorm2d(64, eps=1e-05, momentum=0.1, affine=True, track_running_stats=True)
    (6): Conv2d(64, 6, kernel_size=(3, 3), stride=(1, 1), padding=(1, 1))
    (7): ReLU()
    (8): BatchNorm2d(6, eps=1e-05, momentum=0.1, affine=True, track_running_stats=True)
  )
)
host: r24g41, rank: 7, local_rank: 1,                 gpus_per_node: 2, num_workers: 8
Creating Trainer object with args.work_dir = '/lustre1/project/stg_00032/georgem/closure/models/dev/dev21/'
torch.cuda.is_available() = True
host: r24g41, rank: 6, local_rank: 0,                 gpus_per_node: 2, num_workers: 8
Creating Trainer object with args.work_dir = '/lustre1/project/stg_00032/georgem/closure/models/dev/dev21/'
torch.cuda.is_available() = True
host: r24g40, rank: 5, local_rank: 1,                 gpus_per_node: 2, num_workers: 8
Creating Trainer object with args.work_dir = '/lustre1/project/stg_00032/georgem/closure/models/dev/dev21/'
torch.cuda.is_available() = True
host: r24g40, rank: 4, local_rank: 0,                 gpus_per_node: 2, num_workers: 8
Creating Trainer object with args.work_dir = '/lustre1/project/stg_00032/georgem/closure/models/dev/dev21/'
torch.cuda.is_available() = True
Initializing model FCNN(
  (seq_model): Sequential(
    (0): Conv2d(10, 128, kernel_size=(5, 5), stride=(1, 1), padding=(2, 2))
    (1): ReLU()
    (2): BatchNorm2d(128, eps=1e-05, momentum=0.1, affine=True, track_running_stats=True)
    (3): Conv2d(128, 64, kernel_size=(5, 5), stride=(1, 1), padding=(2, 2))
    (4): ReLU()
    (5): BatchNorm2d(64, eps=1e-05, momentum=0.1, affine=True, track_running_stats=True)
    (6): Conv2d(64, 6, kernel_size=(3, 3), stride=(1, 1), padding=(1, 1))
    (7): ReLU()
    (8): BatchNorm2d(6, eps=1e-05, momentum=0.1, affine=True, track_running_stats=True)
  )
)
Initializing model FCNN(
  (seq_model): Sequential(
    (0): Conv2d(10, 128, kernel_size=(5, 5), stride=(1, 1), padding=(2, 2))
    (1): ReLU()
    (2): BatchNorm2d(128, eps=1e-05, momentum=0.1, affine=True, track_running_stats=True)
    (3): Conv2d(128, 64, kernel_size=(5, 5), stride=(1, 1), padding=(2, 2))
    (4): ReLU()
    (5): BatchNorm2d(64, eps=1e-05, momentum=0.1, affine=True, track_running_stats=True)
    (6): Conv2d(64, 6, kernel_size=(3, 3), stride=(1, 1), padding=(1, 1))
    (7): ReLU()
    (8): BatchNorm2d(6, eps=1e-05, momentum=0.1, affine=True, track_running_stats=True)
  )
)
Initializing model FCNN(
  (seq_model): Sequential(
    (0): Conv2d(10, 128, kernel_size=(5, 5), stride=(1, 1), padding=(2, 2))
    (1): ReLU()
    (2): BatchNorm2d(128, eps=1e-05, momentum=0.1, affine=True, track_running_stats=True)
    (3): Conv2d(128, 64, kernel_size=(5, 5), stride=(1, 1), padding=(2, 2))
    (4): ReLU()
    (5): BatchNorm2d(64, eps=1e-05, momentum=0.1, affine=True, track_running_stats=True)
    (6): Conv2d(64, 6, kernel_size=(3, 3), stride=(1, 1), padding=(1, 1))
    (7): ReLU()
    (8): BatchNorm2d(6, eps=1e-05, momentum=0.1, affine=True, track_running_stats=True)
  )
)
Initializing model FCNN(
  (seq_model): Sequential(
    (0): Conv2d(10, 128, kernel_size=(5, 5), stride=(1, 1), padding=(2, 2))
    (1): ReLU()
    (2): BatchNorm2d(128, eps=1e-05, momentum=0.1, affine=True, track_running_stats=True)
    (3): Conv2d(128, 64, kernel_size=(5, 5), stride=(1, 1), padding=(2, 2))
    (4): ReLU()
    (5): BatchNorm2d(64, eps=1e-05, momentum=0.1, affine=True, track_running_stats=True)
    (6): Conv2d(64, 6, kernel_size=(3, 3), stride=(1, 1), padding=(1, 1))
    (7): ReLU()
    (8): BatchNorm2d(6, eps=1e-05, momentum=0.1, affine=True, track_running_stats=True)
  )
)
Initializing model FCNN(
  (seq_model): Sequential(
    (0): Conv2d(10, 128, kernel_size=(5, 5), stride=(1, 1), padding=(2, 2))
    (1): ReLU()
    (2): BatchNorm2d(128, eps=1e-05, momentum=0.1, affine=True, track_running_stats=True)
    (3): Conv2d(128, 64, kernel_size=(5, 5), stride=(1, 1), padding=(2, 2))
    (4): ReLU()
    (5): BatchNorm2d(64, eps=1e-05, momentum=0.1, affine=True, track_running_stats=True)
    (6): Conv2d(64, 6, kernel_size=(3, 3), stride=(1, 1), padding=(1, 1))
    (7): ReLU()
    (8): BatchNorm2d(6, eps=1e-05, momentum=0.1, affine=True, track_running_stats=True)
  )
)
Optimization criterion MSELoss()
Optimization criterion MSELoss()
Optimization criterion MSELoss()
Optimization criterion MSELoss()
Tracking metrics [L1Loss()]
Tracking metrics [L1Loss()]
Tracking metrics [L1Loss()]
Tracking metrics [L1Loss()]
Optimization criterion MSELoss()
Optimization criterion MSELoss()
Tracking metrics [L1Loss()]
Tracking metrics [L1Loss()]
Optimization criterion MSELoss()
Optimization criterion MSELoss()
Tracking metrics [L1Loss()]
Tracking metrics [L1Loss()]
torch.cuda.is_available() = True
torch.cuda.is_available() = True
torch.cuda.is_available() = True
torch.cuda.is_available() = True
torch.cuda.is_available() = True
torch.cuda.is_available() = True
Initializing model FCNN(
  (seq_model): Sequential(
    (0): Conv2d(10, 128, kernel_size=(5, 5), stride=(1, 1), padding=(2, 2))
    (1): ReLU()
    (2): BatchNorm2d(128, eps=1e-05, momentum=0.1, affine=True, track_running_stats=True)
    (3): Conv2d(128, 64, kernel_size=(5, 5), stride=(1, 1), padding=(2, 2))
    (4): ReLU()
    (5): BatchNorm2d(64, eps=1e-05, momentum=0.1, affine=True, track_running_stats=True)
    (6): Conv2d(64, 6, kernel_size=(3, 3), stride=(1, 1), padding=(1, 1))
    (7): ReLU()
    (8): BatchNorm2d(6, eps=1e-05, momentum=0.1, affine=True, track_running_stats=True)
  )
)
Initializing model FCNN(
  (seq_model): Sequential(
    (0): Conv2d(10, 128, kernel_size=(5, 5), stride=(1, 1), padding=(2, 2))
    (1): ReLU()
    (2): BatchNorm2d(128, eps=1e-05, momentum=0.1, affine=True, track_running_stats=True)
    (3): Conv2d(128, 64, kernel_size=(5, 5), stride=(1, 1), padding=(2, 2))
    (4): ReLU()
    (5): BatchNorm2d(64, eps=1e-05, momentum=0.1, affine=True, track_running_stats=True)
    (6): Conv2d(64, 6, kernel_size=(3, 3), stride=(1, 1), padding=(1, 1))
    (7): ReLU()
    (8): BatchNorm2d(6, eps=1e-05, momentum=0.1, affine=True, track_running_stats=True)
  )
)
Initializing model FCNN(
  (seq_model): Sequential(
    (0): Conv2d(10, 128, kernel_size=(5, 5), stride=(1, 1), padding=(2, 2))
    (1): ReLU()
    (2): BatchNorm2d(128, eps=1e-05, momentum=0.1, affine=True, track_running_stats=True)
    (3): Conv2d(128, 64, kernel_size=(5, 5), stride=(1, 1), padding=(2, 2))
    (4): ReLU()
    (5): BatchNorm2d(64, eps=1e-05, momentum=0.1, affine=True, track_running_stats=True)
    (6): Conv2d(64, 6, kernel_size=(3, 3), stride=(1, 1), padding=(1, 1))
    (7): ReLU()
    (8): BatchNorm2d(6, eps=1e-05, momentum=0.1, affine=True, track_running_stats=True)
  )
)
Initializing model FCNN(
  (seq_model): Sequential(
    (0): Conv2d(10, 128, kernel_size=(5, 5), stride=(1, 1), padding=(2, 2))
    (1): ReLU()
    (2): BatchNorm2d(128, eps=1e-05, momentum=0.1, affine=True, track_running_stats=True)
    (3): Conv2d(128, 64, kernel_size=(5, 5), stride=(1, 1), padding=(2, 2))
    (4): ReLU()
    (5): BatchNorm2d(64, eps=1e-05, momentum=0.1, affine=True, track_running_stats=True)
    (6): Conv2d(64, 6, kernel_size=(3, 3), stride=(1, 1), padding=(1, 1))
    (7): ReLU()
    (8): BatchNorm2d(6, eps=1e-05, momentum=0.1, affine=True, track_running_stats=True)
  )
)
Initializing model FCNN(
  (seq_model): Sequential(
    (0): Conv2d(10, 128, kernel_size=(5, 5), stride=(1, 1), padding=(2, 2))
    (1): ReLU()
    (2): BatchNorm2d(128, eps=1e-05, momentum=0.1, affine=True, track_running_stats=True)
    (3): Conv2d(128, 64, kernel_size=(5, 5), stride=(1, 1), padding=(2, 2))
    (4): ReLU()
    (5): BatchNorm2d(64, eps=1e-05, momentum=0.1, affine=True, track_running_stats=True)
    (6): Conv2d(64, 6, kernel_size=(3, 3), stride=(1, 1), padding=(1, 1))
    (7): ReLU()
    (8): BatchNorm2d(6, eps=1e-05, momentum=0.1, affine=True, track_running_stats=True)
  )
)
torch.cuda.is_available() = True
Initializing model FCNN(
  (seq_model): Sequential(
    (0): Conv2d(10, 128, kernel_size=(5, 5), stride=(1, 1), padding=(2, 2))
    (1): ReLU()
    (2): BatchNorm2d(128, eps=1e-05, momentum=0.1, affine=True, track_running_stats=True)
    (3): Conv2d(128, 64, kernel_size=(5, 5), stride=(1, 1), padding=(2, 2))
    (4): ReLU()
    (5): BatchNorm2d(64, eps=1e-05, momentum=0.1, affine=True, track_running_stats=True)
    (6): Conv2d(64, 6, kernel_size=(3, 3), stride=(1, 1), padding=(1, 1))
    (7): ReLU()
    (8): BatchNorm2d(6, eps=1e-05, momentum=0.1, affine=True, track_running_stats=True)
  )
)
torch.cuda.is_available() = True
Initializing model FCNN(
  (seq_model): Sequential(
    (0): Conv2d(10, 128, kernel_size=(5, 5), stride=(1, 1), padding=(2, 2))
    (1): ReLU()
    (2): BatchNorm2d(128, eps=1e-05, momentum=0.1, affine=True, track_running_stats=True)
    (3): Conv2d(128, 64, kernel_size=(5, 5), stride=(1, 1), padding=(2, 2))
    (4): ReLU()
    (5): BatchNorm2d(64, eps=1e-05, momentum=0.1, affine=True, track_running_stats=True)
    (6): Conv2d(64, 6, kernel_size=(3, 3), stride=(1, 1), padding=(1, 1))
    (7): ReLU()
    (8): BatchNorm2d(6, eps=1e-05, momentum=0.1, affine=True, track_running_stats=True)
  )
)
Initializing model FCNN(
  (seq_model): Sequential(
    (0): Conv2d(10, 128, kernel_size=(5, 5), stride=(1, 1), padding=(2, 2))
    (1): ReLU()
    (2): BatchNorm2d(128, eps=1e-05, momentum=0.1, affine=True, track_running_stats=True)
    (3): Conv2d(128, 64, kernel_size=(5, 5), stride=(1, 1), padding=(2, 2))
    (4): ReLU()
    (5): BatchNorm2d(64, eps=1e-05, momentum=0.1, affine=True, track_running_stats=True)
    (6): Conv2d(64, 6, kernel_size=(3, 3), stride=(1, 1), padding=(1, 1))
    (7): ReLU()
    (8): BatchNorm2d(6, eps=1e-05, momentum=0.1, affine=True, track_running_stats=True)
  )
)
Optimization criterion MSELoss()
Optimization criterion MSELoss()
Optimization criterion MSELoss()
Optimization criterion MSELoss()
Optimization criterion MSELoss()
Optimization criterion MSELoss()
Optimization criterion MSELoss()
Optimization criterion MSELoss()
Tracking metrics [L1Loss()]
Tracking metrics [L1Loss()]
Tracking metrics [L1Loss()]
…
